modeling_tuning/baseline_models/model_4/model_4.pth (torch, 377536 bytes, 7 tensors)

conv1.weight f4 [32, 4, 3, 3]
00000000: c224 933d 8ba2 c93d ce37 413d aec3 503b
00000010: a065 d53d 8832 14be 6104 babd 6f45 55bd
00000020: 37c8 81bd 17b2 b5bd d522 1a3e c67e c03d
00000030: 769c d23d 3955 cdbd d258 9dbd aca0 1fbd
00000040: 18d8 b0bc 3064 f6bd 6571 a83c d7c0 13bd
00000050: bd61 8e3d 4f22 1bbe 38e2 0dbc e7b5 b13d
00000060: 5691 e4bd b7b0 313e c9fa a43c ed3a 143e
00000070: e344 ca3d 487b 193e 9adb 0ebd 91d5 88bc
00000080: e319 f33c e69f 94bc 944f f8bd d8e6 c4bd
00000090: ad26 4ebc 8cec ef3c 4302 033c 7b38 d2bd
000000a0: 4329 06be 43ed 15be cca0 013e f9f6 febc
000000b0: b500 0d3e 1b16 213e 46da 053e 9ef8 97bd
000000c0: 6ce9 04be a167 df3d 8a87 5fbc a1a9 153d
000000d0: af75 6abb 58c2 19bc fcec b3bd 0d5a 8a3c
000000e0: 5036 0bbe 58b0 f8bd eecb 0cbd c722 fcbc
000000f0: de30 b13c 1455 34bd 2813 323d b643 96bc
00000100: 863a bbbd 7487 183d 34d1 9cbd f224 3e3d
00000110: 83ab 0f3e f51b 223e 884d 003d beb9 18be
00000120: c829 e43d 168b 9c3c 99a6 043e de19 a53c
00000130: 0c69 5ebd 127d bb3d 4c5a 1dbe 1723 d63c
00000140: 126d 88bd a273 ffbd 4225 803d 75fa fabd
00000150: aac9 18bd 1e2e 193e 2d6b 96bc 986a 4c3d
00000160: fcfb dfbd df86 733d d976 a53d 7af9 fcbd
00000170: 026d 17be dd62 49bc 0c77 c73d 430c 1dbe
00000180: 5561 bebd 0f1f 103e b225 8f3d 91c6 49bc
00000190: 633e e63c 0230 19bd 3fff 1cbe 1172 85bd
000001a0: f813 063e 4b72 033e 2e04 d13d f8df 33be
000001b0: 09ae b3bd 5547 6f3d 2b51 b4bd 8408 2b3e
000001c0: 8249 7dbd efbb 14be 1b94 203e 89ba b13d
000001d0: 2900 653d 7efd 9ebc fec6 c33d 893f a0bd
000001e0: 9131 673d 5c05 ad3d f4e6 ccbd d77f 3ebd
000001f0: b1a9 ddbd 9fd5 e83d 66dc dd3d 690c 473c
00000200: b86e 303d 7079 133c 7efd 83bb ae2e fd3d
00000210: 4693 f0bd 9091 c4bd 771c 123e d9d0 0cbe
00000220: 0f31 3a3e f062 013d 9ca8 1ebd c8bb 0bbe
00000230: 6af5 54bd c490 87bc 008a fbbd 951d 05be
00000240: 4902 19be 82ca aebd 822e 2fbd b786 013d
00000250: 6f44 093d 855a ff3d eec3 26be 76a5 d0bc
00000260: fdc0 91bd 926b 13be 4135 1c3e d51d c1bc
00000270: 6bd3 003e 67ca 89bd cecb debd 3056 dd3d
00000280: c2ef b53c aaf5 bbbd 1aba a93b 3f9e e13d
00000290: 35c9 11bd 871d a7bd e490 a73d f637 c6bd
000002a0: dccb df3c 7fdc b03d e2d8 c7bd 51e4 edbc
000002b0: 42a3 053e 016b d03c f3f9 503c ae67 28be
000002c0: be65 f73c adab ffbc e031 00be 18fd b73d
000002d0: ba38 2a3d f3b4 ce3c d34d 0ebe 17e0 e1bd
000002e0: 526c 9bbd 113f dcbd 665c 163e 6761 de3d
000002f0: 5ea5 dabc cdc8 9f3d 2965 39bd acc6 093e
00000300: 2441 0f3e e188 9a3b d8a6 9a3d 8712 17be
00000310: b999 363d d901 b83d ca92 4c3c f613 393b
00000320: 8c72 00bd 1cc6 d0bd 8550 81bc 9cc0 cabd
00000330: d0b5 1e3e 37a5 983c b60b 93bd 173d 0bbd
00000340: 1b31 19bd ddba bf3d f825 1b3e 26f0 23be
00000350: 0eaf efbd abe7 33bd a9d3 bc3c ca05 273e
00000360: 6256 82bd 8cbf b63d a486 a53c 5a2f 31bd
00000370: dd3f 093e 8046 e03c 53b0 9abb 37e8 84bd
00000380: 8ba5 3b3c 805b 0fbe b058 1c3e 4921 0d3e
00000390: 99ad 7dbd 6646 b1bd efac d13c 2e79 493d
000003a0: e726 fbbd c5a1 273e c45e 96bd 96f3 b13d
000003b0: 8c0a 1bbe c709 0fbe 2cba 283e 763c 873d
000003c0: 1f9f 753d 1be1 36bc c191 7c3d e2f4 13be
000003d0: 249f 22be bbf4 173d b1f9 c1bd be6b e43d
000003e0: bc9d bd3c b4cb 4a3c 72af b7bd 4490 933c
000003f0: 63de cdbd 7d47 8d3d 4e99 84bd 5c69 8d3d
0.07184745 0.09845456 0.04717236 0.0031854915 0.10419774 -0.14472401 -0.090828665 -0.05206817
-0.06337016 -0.088718586 0.1505235 0.0939918 0.10283749 -0.100260206 -0.07682957 -0.038971588
-0.021587417 -0.12030828 0.020561883 -0.03607258 0.06952236 -0.15149806 -0.008659892 0.08677273
-0.11160533 0.17352568 0.020139115 0.14475603 0.0987642 0.14988434 -0.034877397 -0.016703399
0.02967543 -0.018142652 -0.12124553 -0.096143425 -0.012582463 0.029287599 0.007996145 -0.10264679
-0.13101678 -0.1464129 0.12658995 -0.031123625 0.13769801 0.15731089 0.13071546 -0.07420467
-0.12979668 0.109084375 -0.013643155 0.036538724 -0.0035775711 -0.009384714 -0.087854356 0.016888643
-0.13594937 -0.1214301 -0.03437417 -0.030778302 0.021629747 -0.04402645 0.0434753 -0.018342834
-0.09142022 0.037238553 -0.0765709 0.046421953 0.1403027 0.15830977 0.03132394 -0.14914605
0.11140782 0.01910929 0.12954177 0.020153936 -0.0542994 0.09154715 -0.15366477 0.026139779
-0.066614285 -0.12473227 0.06257106 -0.12254802 -0.037301697 0.14958999 -0.018361652 0.049906343
-0.10936734 0.059454795 0.08079309 -0.123522714 -0.14787677 -0.012291637 0.09739503 -0.15336709
-0.09295908 0.14074348 0.06989612 -0.012315408 0.02810592 -0.0373993 -0.15331744 -0.06515897
0.13093555 0.12836568 0.10205875 -0.17565906 -0.08773429 0.058417637 -0.08804544 0.16702467
-0.06183768 -0.14524816 0.15681498 0.08678157 0.055908356 -0.019407984 0.09559439 -0.07824618
0.056443755 0.08448288 -0.10004988 -0.046508636 -0.10823382 0.1136887 0.10833053 0.012148955
0.04307434 0.009001121 -0.0040280214 0.12362419 -0.1174684 -0.09598076 0.14268671 -0.13751544
0.18182777 0.031588495 -0.038735017 -0.13645852 -0.051991858 -0.016548522 -0.12282181 -0.12999566
-0.14942278 -0.08534719 -0.042768963 0.031622615 0.03351253 0.12468437 -0.16285679 -0.025469523
-0.07116888 -0.14396504 0.1525469 -0.023573795 0.1258065 -0.06728058 -0.108787164 0.108074546
0.022209052 -0.09177716 0.0051796557 0.11016511 -0.035592277 -0.08159929 0.081819326 -0.096786425
0.027318887 0.08635806 -0.09758164 -0.029039534 0.13050559 0.025441648 0.012754905 -0.164458
0.030199882 -0.031209791 -0.12519026 0.08983821 0.041558005 0.025232768 -0.13896875 -0.1102907
-0.0758902 -0.107542165 0.14683685 0.10858422 -0.026690181 0.078019716 -0.04526249 0.13454694
0.13989693 0.0047160243 0.07551354 -0.14753161 0.044580195 0.089847274 0.012486169 0.0028240657
-0.03135924 -0.10194036 -0.015785465 -0.099000186 0.15499043 0.018633468 -0.07179968 -0.033993807
-0.037400346 0.09361813 0.15151203 -0.16009578 -0.11703311 -0.043922108 0.023050146 0.16310802
-0.063641325 0.089232534 0.020205803 -0.04325805 0.13403268 0.027377367 -0.0047207265 -0.06489604
0.011453043 -0.13999748 0.15268207 0.13782229 -0.061933134 -0.086560056 0.025595156 0.04918783
-0.122632794 0.16370304 -0.07342294 0.086890385 -0.15140742 -0.13968574 0.16477269 0.06603329
0.059966203 -0.011162068 0.06166244 -0.14448884 -0.1588102 0.037098628 -0.09471453 0.11153363
0.023146503 0.012377668 -0.089690104 0.018013127 -0.100521825 0.06898401 -0.06474553 0.06904861

conv1.bias f4 [32]
00000000: 50f2 243c 670a 053c e9c8 b43d 74a8 3fba
00000010: 5ea4 903c f446 3bbd 7ceb 47ba 0e87 013b
00000020: c7b5 15bd 9b19 3c3c 72ff 9dbb 8709 e93b
00000030: 20a7 73bc 1e02 d13b a4ce 6e39 f12a afbc
00000040: f166 58bc 9f05 46bc a884 1dbc 2614 28bc
00000050: 03ea 4ebc 8dcb 6ebc a6c1 843a af47 02ba
00000060: aedf 003c c38d 003c a629 0e3d b1b9 4fbb
00000070: e40f 053b 097a d538 aab1 683b b8ad 01bc
0.010067537 0.008120156 0.08827383 -0.0007311173 0.017656501 -0.045721963 -0.00076263375 0.0019764337
-0.03655031 0.011480714 -0.004821711 0.0071117315 -0.014871389 0.006378426 0.00022774428 -0.02138278
-0.013208137 -0.012086301 -0.009614147 -0.01025871 -0.012629035 -0.0145748975 0.0010128513 -0.0004969788
0.007865829 0.007846299 0.034707688 -0.0031696374 0.002030366 0.00010179362 0.0035506287 -0.007914953

conv2.weight f4 [64, 32, 3, 3]
00000000: 0b82 74bd db56 4abc 798d 623c b7ea 1d3d
00000010: 621a cebc 1c77 973c efa8 8f3c a490 5cbd
00000020: 6650 e6bc 3076 55bb 213f fb3c 1616 103d
00000030: b696 8bba 0197 2bbd 1339 6dbc f031 a6bc
00000040: d0ab 54bc 35dd 9c3b 0b78 d23c 3e91 1c3b
00000050: 4051 82bd 2bf6 173d 5e4a b63c 43fa fd3c
00000060: a7b5 1e3d f38e 45bd 0062 80bd 8db7 953a
00000070: 9bfa 50bd 7ca5 233c 4e00 2a3c ecf2 05bb
00000080: 0258 e0bb 0b37 313d 49bd 653c 9150 f8bc
00000090: 41c8 59bd b1bb 80bd 4dd5 343d 3e59 6fbd
000000a0: 8c0e 33bb d04e 4bbc 4837 69bc 905b 333c
000000b0: 1f33 adbc d404 0b3d 6474 6ebd 473c 023d
000000c0: 0de9 333d 1c6e fc3c 9aa6 89bc 093d f03c
000000d0: b4ac 853c 78a0 46bd 9e47 b43a baa7 49bd
000000e0: 8903 063d 4210 4e3d 92ad 12bd e16b 52bd
000000f0: 8d48 68bd f8fd 4bbd daa6 303d cc81 cc3c
00000100: 1180 0d3d cb85 893c a23a 003c f1e8 65bd
00000110: 2205 11bd 8614 9e3c 66e2 8a3c 4571 4a3d
00000120: 8ce1 413d 5921 383d 472e 083d 9b5b ef3c
00000130: 0ce1 55bc 1213 8b3c 07ff e0bc b80c 03bd
00000140: d92c 20bd 0a76 3e3d cbab 4b3c 5847 0e3d
00000150: 6690 78bb 102a 183d e485 0fbc d974 febc
00000160: 004f acbc 49a1 433c 517a 243c 6083 013d
00000170: ba9e 203d db78 e2bc 13df 6abd b37a 003c
00000180: 24f1 d53c 54e6 df3c 179d 3a3d 2e02 543d
00000190: 655f 2dbd fcb6 02bd 7724 033d f869 60bd
000001a0: 30ed 32bd 9403 ea3c cef3 6ebc d4f3 19bd
000001b0: 04ce 203d 930f 683a d7bd 1e3d 53a6 01bd
000001c0: 8c37 86bd 1cb2 003d c131 bf3c 17e3 b43c
000001d0: f949 d13c c614 1dbd 30d7 0b3d 07e2 3bbc
000001e0: 1535 213b 1d3a 5bbd ed04 7dbd 4796 d23c
000001f0: d42e 87bd 36fe 8f3c 98e7 5eba e9d5 41bd
00000200: 0a80 7bbb 4460 26bd 4f70 38bd 3a86 123d
00000210: 9b67 473d 6936 1c3d e9c4 e6bc b84c 54bd
00000220: 12c4 223b b45e 383d e665 9fbc 7322 033d
00000230: ffcb 5ebd a51e 17bd c4f9 85bd 0cfd b4bc
00000240: 7114 00bc cc00 463d 3e6b e23c 6d4f 10bd
00000250: e2da d3bc 5b82 a2bb 6612 1a3c e00c 48bd
00000260: ecb7 e53b 35d2 a63a fe19 023d 35e8 003d
00000270: b110 953c e4d1 283d 4354 113d aca0 e73c
00000280: 3ea6 363d 1adc f33c c83c c13b 5abc 66bd
00000290: 0675 e4bc a0b8 3fbb 9be7 183d 45fd 15bc
000002a0: 5006 043d 320b 313c 003d 54bd 35fc 063d
000002b0: aa51 10bc 6702 0bbc 16b0 bbbc 0370 3b3d
000002c0: d751 8ebc 3109 87bd 0183 bfbc 3107 873c
000002d0: 6c72 333d 002f fcbc 7ca8 7ebd 45b2 3b3d
000002e0: 60b5 1e3d 381f 05bd 7c37 413d 957d a93b
000002f0: 2463 3d3d 02ff 89bd 47f9 2bbd dbb8 3fbd
00000300: a923 243d cbdf c4bc 1e85 4ebc 60ad 8fbd
00000310: 9bb6 31bc 25c1 d33c 6505 113d 3f43 d4bc
00000320: 3d68 1fbd 831b 103d 1370 b53c 81e5 ec3c
00000330: f5b5 1539 d1b4 fc3c 26fb fb3c 7885 b53b
00000340: b762 a4ba a02a 9d3c 3ada 0dbd be84 26bd
00000350: 2726 0bbd 47d3 d33c 4b9c 58bc 52e0 34b8
00000360: 516c b3bc 391b c7bb 9000 18bd 2db1 63bd
00000370: d99f 8cbd 2b1c 413d f92e 7d3c fdb4 b8bc
00000380: f4fe c83c fb71 323c 4490 353c af37 643a
00000390: 49a6 983c 5fab 3e3c 82b8 68bd 4ef5 5bbd
000003a0: 9d38 1cbd 93e3 6bbc 1187 3a3c d53e 1cbb
000003b0: c9bf 8c3b e62d 22bd 74e4 13bd 00ea 83bd
000003c0: 7c7a cf3c d9ec 84bd 41a5 abbc e787 273d
000003d0: 7ab2 22bd 9dd1 3cbd b2df d43a c1d8 2dbd
000003e0: 7a95 0d3d 00f0 b53c 121f 2a3c b1e9 1abd
000003f0: 7f1f a83a 23ed 593c 1b57 3c3d c3b9 ee3c
-0.05969433 -0.0123498095 0.013827675 0.03855392 -0.025159065 0.018489413 0.017536609 -0.053848878
-0.028114509 -0.0032571666 0.03066975 0.035177313 -0.0010649774 -0.041892055 -0.01447894 -0.020287484
-0.012980416 0.004787112 0.025692007 0.0023890282 -0.063631535 0.0371 0.022252258 0.031003123
0.038747456 -0.04823203 -0.06268692 0.00114225 -0.051020246 0.009988185 0.010376049 -0.0020438982
-0.006846429 0.043265384 0.01402218 -0.030311855 -0.053169493 -0.06285799 0.044148732 -0.058434717
-0.0027321903 -0.012408927 -0.0142343715 0.010947123 -0.02114254 0.03394015 -0.058216467 0.031795766
0.043923426 0.030814223 -0.016803075 0.029325979 0.016317703 -0.04849288 0.0013754254 -0.049232222
0.032718215 0.050308473 -0.03581006 -0.051372413 -0.056709815 -0.04980275 0.043127872 0.024964236
0.03454596 0.01678743 0.007826479 -0.056130353 -0.035405286 0.019296896 0.016953658 0.04942443
0.04733424 0.044953678 0.03324726 0.029218486 -0.013054144 0.016976867 -0.027465357 -0.03199455
-0.03910527 0.04649929 0.012431095 0.034736007 -0.0037927865 0.03714949 -0.008759949 -0.031061577
-0.021033764 0.011940309 0.010038928 0.03161943 0.039213873 -0.027645519 -0.057341646 0.007841754
0.026115961 0.027331509 0.04555997 0.05175989 -0.042327303 -0.03191279 0.032017197 -0.05478856
-0.04368323 0.02856616 -0.014584495 -0.03758605 0.03925897 0.00088524184 0.038755264 -0.03165276
-0.065535635 0.03141986 0.023339154 0.022080941 0.025547968 -0.03834989 0.034140766 -0.011467463
0.002459829 -0.053522218 -0.061772276 0.025706423 -0.06600729 0.017577272 -0.0008503138 -0.04732314
-0.0038375878 -0.04061915 -0.04502898 0.03577254 0.04868279 0.038137827 -0.028170066 -0.051830977
0.0024836105 0.04501219 -0.019457769 0.032015275 -0.054393765 -0.03689446 -0.0654178 -0.022093318
-0.007817374 0.048340604 0.027639028 -0.035231996 -0.025861207 -0.0049593872 0.009403801 -0.048840404
0.0070104506 0.0012727441 0.03176307 0.03147145 0.018196436 0.041215792 0.03548075 0.028274857
0.044592135 0.029768039 0.0058971383 -0.05633197 -0.027887832 -0.0029254332 0.03733025 -0.009154622
0.032232583 0.010805892 -0.051815987 0.032955367 -0.008808533 -0.0084844595 -0.022911113 0.04576112
-0.017373009 -0.0659355 -0.023377897 0.016482921 0.043810293 -0.03078413 -0.062172398 0.045824308
0.03874719 -0.032500476 0.047172055 0.0051724412 0.046237126 -0.06738092 -0.041985776 -0.04680715
0.04007307 -0.024032494 -0.01260498 -0.070154905 -0.010846759 0.025848934 0.035405535 -0.025910972
-0.03891777 0.035182487 0.022148168 0.02891803 0.00014277532 0.030847939 0.030759405 0.0055395924
-0.0012541626 0.019185364 -0.034631945 -0.040653937 -0.03397193 0.02585758 -0.013220857 -4.312426e-05
-0.021902235 -0.0060762432 -0.03710991 -0.05558889 -0.06866426 0.047146004 0.015453094 -0.02254724
0.024535634 0.010891433 0.011081759 0.0008705807 0.018633978 0.011637538 -0.056816585 -0.053700738
-0.038139928 -0.01439752 0.011384741 -0.0023841162 0.0042953235 -0.039594553 -0.03610654 -0.06441116
0.02532696 -0.064904876 -0.020952823 0.04090109 -0.03972099 -0.04609834 0.0016240983 -0.04244304
0.03456638 0.022209167 0.010383384 -0.03782052 0.0012826769 0.013301167 0.045981508 0.029141312

conv2.bias f4 [64]
00000000: 3396 d5bc 44a5 30b9 f140 a23c 3951 c03b
00000010: 204c 9ebb 1159 e0bc 03c3 183c 8fac 523a
00000020: 399f 0d39 1846 4cba 9a68 263c 88a5 e92c
00000030: ad76 d5b9 ca3d 7bbc 54d3 5c3c 04fa a23b
00000040: 1729 e5bb f40b 11b9 ba78 b83c c1ab 5bba
00000050: fb65 b6bc e17f a7bb 6fc7 3e38 12a5 7cbc
00000060: b76d c33b e24d 7bbb fb43 df3b 37c9 acb9
00000070: bec7 b2b6 bd7f e53b 1136 2a38 9a6e 4fb9
00000080: 60a4 85bb bd8c 7b3b a354 41b8 0500 0638
00000090: b456 1abc a6d1 dbbc ce42 cd3b 0628 19bd
000000a0: f1c1 2cb7 2863 893c d0a7 e2bb 7805 adbc
000000b0: a303 df3b 43a4 7bbc 66ee 7e3b adbd 9338
000000c0: 4041 0dbc e70f 2f39 1477 9d3c 2dbb 81bb
000000d0: 5a62 b8b9 d012 14bb efc3 be3c 3541 b238
000000e0: 116c 443c 7c60 b13c 0e7f 0c38 82e1 d83b
000000f0: 46f0 fc3b fdfb daba 64e2 a035 9bd2 9abb
-0.026072597 -0.00016846234 0.019806357 0.0058690575 -0.004830852 -0.02738622 0.009323838 0.00080365775
0.00013506123 -0.0007792427 0.010156775 6.640636e-12 -0.00040714946 -0.015334556 0.013478119 0.004973652
-0.0069934237 -0.0001383273 0.022518504 -0.00083797803 -0.022265425 -0.00511168 4.5485267e-05 -0.015420215
0.0059640068 -0.0038345982 0.006813524 -0.00032956313 -5.3280664e-06 0.007003753 4.058151e-05 -0.0001978226
-0.004078433 0.0038383447 -4.609361e-05 3.1948108e-05 -0.009420086 -0.026833367 0.0062640673 -0.037391685
-1.0297154e-05 0.016770914 -0.0069169775 -0.021120772 0.0068058535 -0.015358987 0.003889942 7.044836e-05
-0.008621514 0.00016695225 0.01922182 -0.0039590807 -0.00035168492 -0.002259422 0.023286788 8.499847e-05
0.011988656 0.021652453 3.349693e-05 0.0066186795 0.0077190725 -0.0016707178 1.1986817e-06 -0.004724813

conv3.weight f4 [128, 64, 3, 3]
00000000: fd1e a9bb 97d8 253b 17d5 07bc b5ef 80bc
00000010: a192 d93a a16c 58bc f516 e4bb ad6f 71bc
00000020: 5194 9dbc c0d4 7839 8b97 b63a e7ad eb3a
00000030: a054 a13c 01ac ee3a 3592 2eba 5698 903a
00000040: eca1 363b ccd1 5cb6 9f79 903d 8d29 a7bd
00000050: 55f6 3dbd fd0d e7bc d7b8 83bc 05c4 69bd
00000060: a40c debb f2f2 58bb 6638 1cbd 88d7 f2bb
00000070: b8b0 a33c a419 db3c 438d 933c 2677 8dbc
00000080: de41 293d 7b55 d83c e8cd a6bb 0944 173b
00000090: 439f 9abb 5b82 b5bb b97f 44bc 6fd4 3b3b
000000a0: d38c 2bbc 8767 2abc da35 19bc 2f00 a1bb
000000b0: f74b b7bb 73c3 95bc 3bb7 933b 2bcb f8bb
000000c0: 4eda d03c 592a 963c 4cd6 513d 9c1e 213d
000000d0: b760 f73c 8ea0 863d 49f9 41bd db5f 073d
000000e0: 6877 863b a740 9ebc 16b6 0d3d 4ba6 113d
000000f0: e072 e33c c774 8a3c c6d5 76bc 2c38 303b
00000100: d8de 13bc 6cab 1cbb 6ee0 5bba 1553 41bc
00000110: e309 e3bb f9be 963c 6f64 623b 1a26 563c
00000120: f497 893c a2d7 cc3b c876 623b 665e e83a
00000130: 5c0b ae3b aa12 a9b9 fb1d 9b39 d8db b7bc
00000140: e75f e9b9 9e12 7cbc 9c39 8ebb 7857 d6bb
00000150: b3c4 94bc f5e0 9fbb 41bf 403c 33a6 72bc
00000160: d64f 49bc cfb1 0a3b 0a18 023a bd80 e0bb
00000170: aa08 373b f030 c538 9380 b7ba 3d52 c1bb
00000180: fc8f 003c 1f71 f7bb 9e38 99bb 3cf3 bd30
00000190: 6692 d82d fa1d e4ae b33c c5af e72a 0cae
000001a0: 47c9 0eaf 280e 0aad 95a4 3bae 8509 09ac
000001b0: a58e 84bd 69e5 4f3c dc52 e4bd b0c7 56bd
000001c0: 1402 8cbc 81dd 70bd f788 aa3b 5705 41bd
000001d0: 25dd 0c3c 638c 7ebd 503b 73bd 7c04 a13d
000001e0: f14a 89bd de70 65bc 82f6 23bd ea3f a53d
000001f0: ea5a 1a3d f628 2bbd 7971 bd3c e8b8 283d
00000200: 0a66 2e3d c12d 22bd 2a7a 63bd b64d 47bd
00000210: fdc4 6c3d 4820 61bc c090 5bbd 1ff7 3abb
00000220: cb00 5dbc e173 293c 256a 61bb 8fcf c63b
00000230: 4c1f 71bc eced b53c 2601 f23b d0be 9b3c
00000240: 373f 933c 832d ad3c d88e babd 7dfe 593b
00000250: 0393 663b 1cc7 98bb f025 e33d 5b8e 2e3d
00000260: a95c 073d 26f2 393c fd0a 16bc 1733 4bbc
00000270: ef5b 1bbc 749a 1bbc 0558 debb 292b 4ebc
00000280: a6d9 39bc 8caa c7bb ec2f 463d 1bd4 8e3b
00000290: a41c 213d 8133 90bc 75ed 0fbb 4c2f 483c
000002a0: 3e18 2a3d b936 d93c 543e 6fbb 31dc 07bd
000002b0: aefc 47bd 86da 87bd e199 733d 74c3 50bd
000002c0: 1128 c3bd b796 4c3d 502c ac3a 8ffc 653d
000002d0: 1f82 53bd 13b8 6e3d 368a 14bd 9b28 89bd
000002e0: 4b0f 3abd 505a 403c 54e8 373b 4837 4abd
000002f0: d074 853c 23f2 3bbd ccd1 943b f126 be3c
00000300: 229a 21bd 1045 0d3d bebd 673c 8daa d13b
00000310: 01a5 f5bb b9d4 213c f2dc b03b da9c 143c
00000320: 68be 103c 552e 8aba 18f6 a939 eb1e 2aba
00000330: 34df cbb9 1b6b 8638 a2c0 12b7 bd44 993d
00000340: f2d5 a83c e0e8 4cbd c4f0 74bc 2002 ec3c
00000350: dfba e3bc 4846 c1bc 1115 543c e82e 563b
00000360: 6461 22bd 749e 27bd 58a2 a1bc 6cfb b9bc
00000370: a514 6dbc e395 b6bc fad2 f33b d086 57bc
00000380: 46f3 29bd 44b0 443b ac0b ef3b 4552 7e3c
00000390: f8bc 8cbb 5d6e ae3b de5e 353c 9116 ca3b
000003a0: e3e4 3fbc 882e 7c3b b339 1b3c e4ed 3a3d
000003b0: 6e46 ebbc 5e54 88bd d2df 61bb 43bb aebc
000003c0: a772 d63c 297f 373b 0618 9b3c dade 683c
000003d0: c46b b4bd 466b 23be 5dd5 edbc 594f a33d
000003e0: 2928 15bd 7094 8bbc 8f01 9bbb b51d 9b3c
000003f0: 3bf0 8d3b f2a0 23bb bbc1 6cbc db82 9d3b
-0.005161165 0.00253061 -0.008290551 -0.015739301 0.0016599485 -0.013209493 -0.0069607445 -0.014736098
-0.019235762 0.00023730379 0.0013930661 0.0017980904 0.019693673 0.001820922 -0.000665936 0.0011031728
0.002786751 -3.2904672e-06 0.070544474 -0.08162222 -0.0463775 -0.028204912 -0.01607935 -0.057071704
-0.006776409 -0.003310379 -0.038139723 -0.0074109472 0.019981727 0.026745625 0.018011695 -0.017268728
0.04132258 0.026407948 -0.005090464 0.0023081324 -0.0047186925 -0.005539221 -0.011993342 0.0028660556
-0.010470587 -0.010400659 -0.009351218 -0.004913352 -0.0055937725 -0.018281674 0.0045079268 -0.007592579
0.02549472 0.01833074 0.05122976 0.039335832 0.030197484 0.06573592 -0.047356877 0.0330504
0.00410359 -0.019317938 0.03459748 0.03555898 0.027764738 0.016901387 -0.015065616 0.002688895
-0.009025298 -0.0023905886 -0.00083876296 -0.011799593 -0.006928669 0.01840161 0.0034544726 0.013070608
0.01679609 0.0062512914 0.0034555662 0.0017728328 0.0053114127 -0.00032248098 0.0002958624 -0.022443697
-0.00044512676 -0.015385298 -0.0043403637 -0.006541189 -0.0181602 -0.004879112 0.0117643485 -0.014810133
-0.012287101 0.002116311 0.00049626885 -0.0068512843 0.0027928748 9.402807e-05 -0.001400011 -0.005899696
0.007846829 -0.007551327 -0.0046759387 1.3820691e-09 2.4621371e-11 -1.03735645e-10 -3.587722e-10 -3.187042e-11
-1.2986333e-10 -7.847535e-12 -4.2665056e-11 -1.9474155e-12 -0.0647252 0.012688973 -0.11148617 -0.05243653
-0.017090835 -0.058804993 0.0052043158 -0.047124233 0.008597647 -0.062145602 -0.059382737 0.078621835
-0.06703747 -0.01400396 -0.04003001 0.08068831 0.03768436 -0.04178711 0.023125397 0.041191965
0.04257778 -0.039594416 -0.055536427 -0.048658095 0.05780505 -0.013740607 -0.05360484 -0.0028528643
-0.013488959 0.010342569 -0.0034395542 0.0060672234 -0.014716934 0.022208177 0.007385391 0.019011885
0.01797448 0.021139866 -0.091092765 0.003326326 0.003518284 -0.0046624076 0.110912204 0.04261623
0.033047352 0.011349237 -0.009157893 -0.0124023175 -0.009482368 -0.009497274 -0.006785395 -0.012583532
-0.011343395 -0.006093329 0.048385546 0.004358781 0.039333954 -0.017602684 -0.0021961604 0.012218308
0.041527025 0.026515352 -0.0036505656 -0.033168975 -0.04882496 -0.06633477 0.059472922 -0.05096765
-0.095291264 0.04994842 0.0013135765 0.05614906 -0.051637765 0.058281016 -0.03626462 -0.06697198
-0.04542474 0.011740282 0.0028062062 -0.049369127 0.016291052 -0.045885216 0.0045416113 0.023211928
-0.039453633 0.03448969 0.014144359 0.006398505 -0.0074964766 0.009877377 0.0053974325 0.009070599
0.008834459 -0.0010542372 0.00032417546 -0.00064895925 -0.00038885477 6.409568e-05 -8.747129e-06 0.07483814
0.02060983 -0.050026774 -0.014949981 0.028809607 -0.027799068 -0.023593083 0.012944476 0.0032681767
-0.03964366 -0.040922597 -0.019730732 -0.022702895 -0.014470254 -0.022288268 0.007440922 -0.0131547
-0.04149177 0.003001229 0.0072950926 0.015522544 -0.004294988 0.005323215 0.011069981 0.006167241
-0.011712286 0.0038479883 0.009474206 0.045637026 -0.028720107 -0.06656717 -0.0034465683 -0.021329528
0.026177717 0.0027999377 0.018932354 0.014213288 -0.08809617 -0.1595889 -0.029032404 0.07974119
-0.036415253 -0.017038554 -0.0047304104 0.018935064 0.004331616 -0.0024967757 -0.014450486 0.004806859

conv3.bias f4 [128]
00000000: b029 cb3e f291 a8bb 66cd b9bb c6e8 9b3e
00000010: a8cc a33e 851e d73e b407 11bc 3d8f ce3d
00000020: e41c 18bc 456d 35bc 0dbc ab3d c086 043f
00000030: 30d3 e9bb 6b4b c1bb c50d abbc 7741 363e
00000040: 3893 91bb fa9f 643e ccd4 783e 1e32 e03d
00000050: 9dce 19ba 98ec e7bc 8eac 1c3f a837 10bd
00000060: 099c d83e 19a9 843e 5866 bd3e 7a30 3dbb
00000070: 58c8 fbb5 bfe5 da3a 9a96 b63e d7b0 8fbb
00000080: 6c69 c13e ed3e 97bc 3793 de3e 4c59 48bc
00000090: b0e3 c6bc 3bbf 4cbc e087 3aba 5391 eebb
000000a0: 75b5 b53e 5110 883e 47cb 00bd c60b 0ebd
000000b0: b9aa 16b9 6c64 b53e dcac 83bb 8b03 9ebc
000000c0: 0654 c2bc 2aaa aa3e f12c d4bc b614 a7bb
000000d0: 11cb 0ebd 6d64 70ba 4632 9b3e 3c1a 6c3e
000000e0: c9cf 33bb c1a0 a83e 5cfc 183f 366c a53e
000000f0: ec32 75bc dfc0 81ba b1a1 d73e 7c64 20b9
00000100: 948c 1abb 20b0 d6bb 26a0 3d3d f034 71b9
00000110: 3cd8 cebc c4f2 773e 83ce af3e 16ed 6bbc
00000120: 67fb c73e c21c cb3e 7971 efbc 37b8 b5bb
00000130: b9c7 b43e d5c0 b1b9 081d d1bb 1d1c b13e
00000140: 1e82 b13e bb6a 91b8 04a8 a1b9 70c1 d3bb
00000150: 89a3 11b9 8fee 16b9 78e1 b53e fef8 b1bb
00000160: 7dd8 92bb b29d a8ba 134c c93e b9de 26bc
00000170: 6cd6 62ba 1ac7 663e 34f1 883e 7df5 f9bb
00000180: 877d 03bb f2f7 8f3e 5c2f 33b9 042c 443f
00000190: 822e 0dbc f6b1 eabc 055f 26bc 9c6e 7d3e
000001a0: 0343 833e 8ee7 b03e fd8e 88bb f817 d1bc
000001b0: 122f 913e 1ca5 62bb 27c9 17ba e963 a1bc
000001c0: 4f0b 94bc 307e f63d 7093 58bc 13b3 c5bb
000001d0: a341 9c3e 53c2 0abc 0992 f3b8 88c0 68bb
000001e0: 58d3 a4bb cfa9 df3e df8e 243f 5b63 42bc
000001f0: 876b 9a3e 3183 d83e dd7d 3ebb c1af 7fbc
0.39680243 -0.005144351 -0.0056702374 0.3045103 0.31992078 0.42015472 -0.008851934 0.10085914
-0.009284232 -0.011073415 0.08385477 0.5176811 -0.007135771 -0.005898883 -0.02088059 0.1779841
-0.0044425987 0.22326651 0.24299926 0.10947059 -0.00058672746 -0.028311059 0.612008 -0.035209328
0.42306545 0.2591026 0.36992145 -0.0028868006 -1.8759265e-06 0.001670055 0.35661775 -0.0043850946
0.37775743 -0.018462623 0.4347169 -0.012228321 -0.024278492 -0.012496765 -0.0007115584 -0.0072805076
0.35490003 0.26574948 -0.03144386 -0.034679197 -0.00014368714 0.35428178 -0.004018409 -0.019288799
-0.023721706 0.3333295 -0.025900336 -0.0050989045 -0.034861628 -0.0009170238 0.30311793 0.23056883
-0.0027437082 0.32935145 0.5976007 0.3230912 -0.014965754 -0.0009899399 0.42115548 -0.00015296222
-0.0023582326 -0.0065517575 0.046295308 -0.00023003272 -0.025249593 0.24213701 0.34337243 -0.014399787
0.39058992 0.39670378 -0.029228913 -0.0055456418 0.35308626 -0.00033903742 -0.0063816346 0.3459176
0.34669584 -6.934019e-05 -0.00030833494 -0.0064622685 -0.00013889199 -0.00014393985 0.35523582 -0.0054312935
-0.004481374 -0.001286438 0.39315853 -0.010184937 -0.0008653167 0.22536889 0.26746523 -0.0076281414
-0.0020063834 0.28118855 -0.00017088413 0.7662966 -0.008617045 -0.028649312 -0.01015449 0.24749225
0.25637063 0.34551662 -0.004167436 -0.025524125 0.28356224 -0.0034583276 -0.0005790167 -0.019700961
-0.018071799 0.12035787 -0.013218746 -0.00603331 0.30518827 -0.008469182 -0.00011614344 -0.0035515148
-0.005030077 0.4368424 0.64280504 -0.0118645085 0.30160162 0.4228759 -0.002906672 -0.015605868

conv4.weight f4 [1, 128, 1, 1]
00000000: e467 28bd 4429 ea3c 3b4d b53c 415f b0bd
00000010: 4dba 1bbd 763f 80bd 0120 1f3d b245 9fbc
00000020: 66d0 d3bc 5095 8c3d f884 5bbb a02a 15be
00000030: 4233 8c3d 5e48 943d fc0a 5abd 131d 9fbd
00000040: 7b80 b93c 9fd8 50bc f08d 4cbd c977 8ebb
00000050: 8784 9abb ff8a 483d a131 cebe fd11 1e3d
00000060: 596b 8abd f214 55bc 45d3 83bd 77a0 9ebc
00000070: e787 1439 4930 74b8 7018 56bd 447d f23c
00000080: 7f83 8fbd eeda e13c ff26 7cbd c1f4 c4bc
00000090: f510 7e3d 1af8 ab3d e88b 553b 730c 9a3d
000000a0: a481 42bd 204d 04bd 3337 3a3d 9c4a 8e3d
000000b0: f1e8 5d3d 9d51 2bbd feb7 ab3c 5685 7bbd
000000c0: 472c 14bd e91c 8ebd 1484 933d 3c27 243d
000000d0: c3d1 98bd 1eeb 7f3d d61a c5bc 9a06 95bd
000000e0: fa7d 89bd b1c7 e3bc 359d a4be e44f 56bd
000000f0: 3e7e 9ebd bfc0 253b 7364 95bd fcb4 703b
00000100: 05f4 f63c 6002 693d 5c74 3dbd 10d4 283d
00000110: 1e6c 143d f912 cabc 7503 adbd cb2c 95bc
00000120: 6f56 e6bc 32d4 a6bd 95e6 943d b6da 863d
00000130: 8c7a 0abd b034 69bd 40fa 7c3d dff7 26bd
00000140: 11f5 d9bc 22f8 273d 16d4 843a 7ecd 17bd
00000150: 01de 49b9 d4f5 0d3d 1ac0 c6bc f3e2 ffbc
00000160: d01b 003d f7e9 ce3a 05a0 45bd 98ab 903d
00000170: 827e 01bd 4329 02bd 10fe a9bc 52c8 993d
00000180: eeba e83a f2b9 13bd 853a f13b 6b7b 8ebe
00000190: b25f 53bc 4c96 7abd 4fb0 a23d 2171 52bd
000001a0: c64b 4ebc 6c49 7bbd 1446 673d 3822 03bd
000001b0: 50b5 3ebd 18d0 923d 105b 173d 7c86 8cbd
000001c0: 8755 6bbd 4588 76bc 3004 b93c 04de a73d
000001d0: a09f 97bd a000 6a3d 610d f93c f4e0 ed3c
000001e0: 32cf 8c3d 3bb9 ffbc 818f 1abf 0fc1 aa3d
000001f0: fa81 5cbd cf61 a3bd 648e edbc 2c6a 0dbd
-0.041114703 0.02858413 0.022131553 -0.08611918 -0.038019467 -0.06262104 0.03884888 -0.019442413
-0.025856208 0.068644166 -0.0033496004 -0.14567041 0.06845714 0.072403654 -0.05323313 -0.07769217
0.022644272 -0.012746959 -0.04994005 -0.0043477756 -0.0047155055 0.048960682 -0.4027224 0.038591374
-0.06758756 -0.013005482 -0.06436781 -0.019363625 0.00014165007 -5.8219102e-05 -0.0522694 0.029600747
-0.07007503 0.027570214 -0.061560627 -0.024042489 0.06202789 0.08396931 0.0032584611 0.07521906
-0.047486916 -0.032300115 0.0454628 0.06947824 0.05417723 -0.04182588 0.020961758 -0.061406456
-0.03617504 -0.06939108 0.07202926 0.04007648 -0.07461884 0.062480085 -0.024060648 -0.0727665
-0.06713481 -0.027805181 -0.3215119 -0.052322283 -0.077389225 0.0025291888 -0.0729455 0.003672897
0.030145654 0.05688703 -0.046253547 0.041217864 0.03623592 -0.02466725 -0.08447925 -0.018209836
-0.028117387 -0.08145942 0.072705425 0.065846846 -0.033808276 -0.056935012 0.061762094 -0.040763732
-0.026606115 0.041008122 0.0010134007 -0.037061207 -0.00019251557 0.034658268 -0.024261523 -0.031236148
0.031276524 0.001578628 -0.04824831 0.07063979 -0.031614788 -0.03177763 -0.02075103 0.07508911
0.0017755905 -0.036066003 0.0073617124 -0.27828535 -0.0129012335 -0.06117849 0.079437844 -0.05137742
-0.012591308 -0.061349317 0.056463316 -0.032015055 -0.04655963 0.07168597 0.03695208 -0.06861588
-0.057454612 -0.015047138 0.022585005 0.08196643 -0.07403493 0.057129502 0.030401887 0.02903793
0.06875457 -0.031216254 -0.6037522 0.08337604 -0.053834893 -0.0797764 -0.028998561 -0.03452508
